model/rnn/ckpt_best_200_-1.pkl (torch, 210339 bytes, 6 tensors)

basic_rnn.weight_ih_l0 f4 [150, 192]
0	0x3d21f51f	0.039540406
1	0xbd58de8e	-0.05294662
2	0x3d8dc66f	0.06922614
3	0x3b6fa414	0.0036566304
4	0x3d7e6068	0.06210366
5	0x3d15bb80	0.036555767
6	0x3d6aaa03	0.057291042
7	0xbcddad5d	-0.027060205
8	0xbda150d3	-0.07876744
9	0xbd886539	-0.06659932
10	0x3a046dc9	0.00050517597
11	0xbd93540e	-0.071937665
12	0xbd9e949e	-0.0774319
13	0xbcc2b5b7	-0.023768289
14	0xbd127a13	-0.03576095
15	0x3da15a6d	0.078785755
16	0x3c4670c0	0.012111843
17	0x3c9f7281	0.01946378
18	0x3cbf9f73	0.023391461
19	0x3d8dd60f	0.06925594
20	0x3d088c8b	0.033337157
21	0xbcacf406	-0.021112453
22	0xbda1a847	-0.078934245
23	0x3cd375fb	0.025813093
24	0x3d6c52c1	0.057696108
25	0xbd825a6b	-0.06364902
26	0xbd6356c5	-0.05550267
27	0x3d8dd11b	0.06924649
28	0xbd8bb120	-0.06820893
29	0x3da46d8c	0.08028707
30	0x3d146088	0.036224872
31	0x3d1ff2c3	0.039049875
32	0xbd1029bb	-0.035196047
33	0x3c8266e8	0.01591821
34	0x3c78cbbc	0.015185293
35	0x3d37e0cd	0.04489212
36	0x3d8c4866	0.068497464
37	0x3d8defca	0.06930502
38	0x3d3e16ca	0.046408452
39	0x3bcfbab3	0.006339395
40	0xbc4d7489	-0.012539991
41	0xbd2d889f	-0.04236662
42	0xbc9f710f	-0.01946309
43	0x3c2ec2a6	0.010666525
44	0x3d4cd61e	0.050008886
45	0xbcd6bf24	-0.02621419
46	0xbd8da7cf	-0.069167726
47	0x3d115fd9	0.035491798
48	0xbd741c1a	-0.059597112
49	0xbd832577	-0.0640363
50	0x3cdb2924	0.026753016
51	0xbc64d1ed	-0.013966066
52	0xbc89d5ea	-0.016825635
53	0x3d9b4110	0.07580769
54	0x3da36cec	0.079797596
55	0x3cb225a4	0.021746464
56	0xbd5a099e	-0.053231828
57	0x3d7ea494	0.062168673
58	0x3cd7ee87	0.026358856
59	0xbd5d7456	-0.054066025
60	0x3d8e7e02	0.06957628
61	0xbc3d5195	-0.011555095
62	0xbceb408e	-0.028717306
63	0x3d84344f	0.064552896
64	0x3d8703fb	0.06592556
65	0xbc3e3a8b	-0.011610637
66	0x3d0a5078	0.033768147
67	0xbd74cb58	-0.059764236
68	0xbc27072e	-0.010194583
69	0x39eee946	0.000455687
70	0xbc751f02	-0.014961006
71	0x3da095e4	0.07841089
72	0x3c5babf6	0.013407698
73	0x3c9900af	0.018677084
74	0x3d7c79ed	0.061639715
75	0x3ccbdea5	0.024886439
76	0xbc4daaa3	-0.01255289
77	0x3d7fc0c8	0.06243971
78	0x3d3abada	0.04558835
79	0xbca1e7ad	-0.019763792
80	0xbd00fab5	-0.031489093
81	0xbd4fc9d0	-0.050729573
82	0x3d25efab	0.04051177
83	0x3cbf43fa	0.023347843
84	0x3c5fef08	0.013667829
85	0x3d9a969d	0.075482585
86	0xbd66ba7a	-0.05633018
87	0x3d71fe92	0.059080668
88	0x3d5e525e	0.05427777
89	0x3d01126d	0.031511713
90	0x3d9fca84	0.07802299
91	0x3d9d0777	0.076674394
92	0xbda68472	-0.08130731
93	0xbd519ecc	-0.05117683
94	0x3d9515e7	0.07279568
95	0x3d418b18	0.04725179
96	0xbcb46964	-0.02202291
97	0x3d377e61	0.04479826
98	0xbc9f284c	-0.019428395
99	0xbcd1b76a	-0.025600154
100	0xbd5f74dd	-0.05455481
101	0x3c16a599	0.009194755
102	0xbcae1873	-0.021251893
103	0x3cc88c0a	0.024480838
104	0xbca4555b	-0.020060232
105	0xbd9d7595	-0.076884426
106	0xbd867097	-0.065644436
107	0x3d5e2bd5	0.05424102
108	0x3d0e8656	0.03479608
109	0xbd8d9799	-0.069136806
110	0xbd7f3dfe	-0.06231498
111	0xbd728c25	-0.059215683
112	0xbd995ac0	-0.07488012
113	0xbc9d9325	-0.019235203
114	0xbd8dd112	-0.069246426
115	0x3c6807ea	0.014162043
116	0x3d4ac7ec	0.049507067
117	0xbcb35fdc	-0.021896295
118	0xbce2f1b6	-0.027703147
119	0xbcffd733	-0.031230545
120	0xbc19c492	-0.009385245
121	0xbba7b134	-0.00511756
122	0xbd0b1244	-0.033952966
123	0xbc21e7c0	-0.009881914
124	0x3d043462	0.03227652
125	0xbd8747b8	-0.06605476
126	0x3d9cc82d	0.07655368
127	0x3d8da0e9	0.06915457
128	0x3cd07597	0.025446696
129	0xbd3f8834	-0.046760753
130	0xbd1dea94	-0.03855379
131	0x3da294df	0.07938551
132	0x3d34bc85	0.0441251
133	0x3da089b3	0.07838764
134	0xbd33a328	-0.04385677
135	0xbd6e4def	-0.058179792
136	0x3d8147fe	0.063125595
137	0xbd2854f6	-0.04109665
138	0x3cb9d47c	0.022684328
139	0xbd8b1d4b	-0.067926966
140	0x3da22c4a	0.07918604
141	0x3d9c29ee	0.07625185
142	0xbc351c98	-0.011054181
143	0x3d8c9dde	0.06866048
144	0x3ccfb3aa	0.025354225
145	0xbd75e8a9	-0.060036335
146	0xbcf5cdd0	-0.030005366
147	0x3d477c02	0.048702247
148	0xbcfb4c79	-0.030676113
149	0x3c63cea6	0.013904249
150	0xbd9480d2	-0.07251133
151	0xbcb840e8	-0.022491887
152	0xbd3bd6a0	-0.04585898
153	0x3d711c97	0.058865156
154	0x3cdef194	0.027214803
155	0xbd22db18	-0.039759725
156	0xbd7558c2	-0.0598991
157	0x3d8e7549	0.06955964
158	0xbd290dc9	-0.041272912
159	0xbd813ba4	-0.06310204
160	0x3d589202	0.05287362
161	0xb9c69189	-0.00037873935
162	0x3d63290e	0.055459075
163	0x39956e0f	0.00028501495
164	0x3b51dc13	0.0032022044
165	0x3c99a5c1	0.018755795
166	0x3d0b87dc	0.034065112
167	0x3ce6abf4	0.028158166
168	0xbd0cc9b8	-0.03437206
169	0xbc7f9288	-0.015598901
170	0xbd829473	-0.06375971
171	0xbd5dcb87	-0.054149177
172	0x3c167383	0.009182814
173	0x3d73417b	0.05938862
174	0xbccb12ee	-0.0247893
175	0xbd1c854d	-0.038213063
176	0xbd2f911a	-0.04286299
177	0xba9d8a30	-0.0012019332
178	0xba5b994b	-0.00083770294
179	0xbd136b02	-0.035990722
180	0xbd36f28f	-0.044664916
181	0x3bcdd5db	0.006281597
182	0xbcecd34d	-0.02890935
183	0xbd82a18d	-0.063784696
184	0x3d27ecc3	0.040997278
185	0x3cb5b292	0.022179876
186	0x3d3074b3	0.043080043
187	0xbcc7e657	-0.024401827
188	0xbb7980c3	-0.0038071133
189	0x3c183157	0.009289107
190	0xbd9b3209	-0.07577903
191	0x3d03af03	0.032149326
192	0x3d8fa03b	0.070129834
193	0x3c796177	0.015220991
194	0xbc4f74b3	-0.012662101
195	0xbb9c9651	-0.0047786613
196	0x3d953dda	0.07287188
197	0xbd2fa1ea	-0.042879023
198	0xbd1d6e5f	-0.038435336
199	0x3cd7a3fc	0.026323311
200	0x3d442568	0.047887236
201	0x3d8d95cb	0.06913336
202	0x3d9f620c	0.07782373
203	0x3d87bc6a	0.06627734
204	0xbb7dd382	-0.0038730805
205	0x3da1fd95	0.07909695
206	0xbc93b182	-0.018028978
207	0xbce8a932	-0.028400991
208	0xbd35dfc8	-0.044402868
209	0xbca62034	-0.020279028
210	0x3beeb8dc	0.0072852205
211	0x3d0b0fdd	0.033950675
212	0xbb151e5e	-0.0022753696
213	0x3bcac52d	0.006188056
214	0x3d8893ae	0.06668793
215	0xbc103e70	-0.008803949
216	0x3d2fa0d2	0.04287798
217	0x3b9c40f8	0.004768487
218	0x3d3ea5fd	0.046545018
219	0x3d30a01a	0.043121435
220	0xbca7da2b	-0.020489773
221	0x3cff103f	0.031135676
222	0xbda1ad2e	-0.078943595
223	0x3d8f573d	0.06999061
224	0xbd8e91b2	-0.06961383
225	0x3d523afc	0.051325783
226	0x3cc1f10f	0.023674516
227	0x3d0c2244	0.034212366
228	0x3c888b82	0.016668085
229	0xbd51c64a	-0.051214494
230	0xbd078691	-0.033087317
231	0xbcf8c32a	-0.030366499
232	0xbd1fdb46	-0.039027475
233	0x3d57f6d0	0.052725613
234	0x3d972f43	0.07382061
235	0xbc8fb084	-0.017540224
236	0xbc660bf1	-0.014040933
237	0xbd92cd53	-0.07168069
238	0x3cb96f3d	0.02263605
239	0x3cea15f1	0.028574916
240	0x3bbef312	0.005827316
241	0xbc9de4ea	-0.019274194
242	0xbda38a4f	-0.07985365
243	0x3c0ed28a	0.008717189
244	0xbd0569ed	-0.03257172
245	0xbc634592	-0.013871567
246	0x3c106f52	0.008815603
247	0xbd078dd8	-0.033094257
248	0xbd1928c9	-0.03739241
249	0x3d5286ed	0.051398207
250	0x3d8ad54c	0.067789644
251	0xbc5741d4	-0.013138253
252	0x3d724f31	0.059157554
253	0xbd94c607	-0.07264333
254	0xbcbcd5d4	-0.02305118
255	0xbd9593c9	-0.073035784

basic_rnn.weight_hh_l0 f4 [150, 150]
0	0x3bb1c924	0.005425589
1	0x3c62558e	0.013814343
2	0xbca307e3	-0.019901222
3	0x3c315b8e	0.010825051
4	0xbd6643de	-0.056217067
5	0x3d3f9971	0.046777193
6	0x3c6b1156	0.014347395
7	0xbd7ef038	-0.06224081
8	0x3ccde763	0.025134748
9	0x3c6af53f	0.014340698
10	0xbcd9a696	-0.026568692
11	0x3d766ca5	0.060162205
12	0xbd3770db	-0.04478536
13	0xbd61b859	-0.05510745
14	0xbd257c95	-0.040402014
15	0xbd8aec1a	-0.06783314
16	0x3c8e2138	0.017349824
17	0x3d7a986a	0.06118051
18	0xbd70d9a4	-0.05880131
19	0xbd8f634e	-0.07001363
20	0xbcbe15e0	-0.02320379
21	0xbbeaa024	-0.0071602035
22	0xbd0265fc	-0.03183554
23	0xbd72cfa1	-0.05928004
24	0x3d810852	0.06300415
25	0x3c8de4aa	0.01732095
26	0x3b491307	0.0030681507
27	0x3d99329d	0.07480357
28	0xbd8463ad	-0.06464324
29	0xbd5709d9	-0.052499626
30	0xbd771485	-0.060322303
31	0x3da1374d	0.07871876
32	0xbd23cb44	-0.03998877
33	0xbc789adb	-0.015173639
34	0x3d3db0e7	0.046311285
35	0x3c813cf6	0.015776139
36	0xbb8f57c1	-0.0043744748
37	0x3d88c57a	0.06678291
38	0xbd599b88	-0.05312684
39	0xbd067d59	-0.032834385
40	0xbd486c06	-0.048931144
41	0xbc252e13	-0.010081786
42	0xbd9074ce	-0.07053529
43	0xbd74fa36	-0.059808932
44	0x3d9ac810	0.0755769
45	0x3d8c2c5f	0.068444006
46	0x3c8973c8	0.016778842
47	0xbc6b3e77	-0.0143581545
48	0x3d4bd537	0.049763884
49	0x3cab1581	0.020884277
50	0xbd161c09	-0.03664783
51	0xbc299200	-0.0103497505
52	0xbd20577c	-0.03914593
53	0xbd8697ba	-0.06571908
54	0x3d553ce3	0.05206002
55	0xbcdca142	-0.026932362
56	0x3d856e98	0.06515235
57	0xbd628f21	-0.05531228
58	0xba999965	-0.0011718689
59	0xbd24c649	-0.040228162
60	0xbd1b1a76	-0.037867032
61	0x3cb9b9e2	0.022671644
62	0xbc4168e0	-0.011804789
63	0xbbd5a4b2	-0.0065198774
64	0xbda07c63	-0.07836225
65	0xbd36a65b	-0.044592243
66	0x3d87a228	0.06622726
67	0x3cf863bb	0.030320993
68	0x3da725d6	0.081615135
69	0x3cd40d06	0.025885116
70	0x3cdd7b1f	0.027036248
71	0xba35e20f	-0.00069382874
72	0xbd9717c6	-0.07377581
73	0x3d74f6a8	0.059805542
74	0xbd294494	-0.041325167
75	0x3d38dbb2	0.045131393
76	0xbce61443	-0.028085833
77	0x3cfbcfed	0.030738795
78	0xbc315682	-0.010823848
79	0xbd924525	-0.071420945
80	0xbd2092e6	-0.039202593
81	0xbd9cc2ca	-0.076543406
82	0xbd91d342	-0.07120372
83	0x3da00d4d	0.07815037
84	0x3d55e0cd	0.05221634
85	0xbc5921fe	-0.013252733
86	0x3d981dd8	0.07427567
87	0x3d0f90e9	0.035050306
88	0x3cc0e3a1	0.023546042
89	0xbaaede24	-0.001334135
90	0xbd61edee	-0.055158548
91	0xbd43e00d	-0.047821093
92	0xbcf9c56b	-0.030489644
93	0x3cc04fb5	0.023475507
94	0xbd0c8649	-0.03430775
95	0x3d60e500	0.05490589
96	0x3d51c6b7	0.0512149
97	0x3c8ff4fa	0.017572869
98	0xbd766e83	-0.060163986
99	0x3d7919b1	0.060815517
100	0x3cc56523	0.024096077
101	0xbd8b013d	-0.067873456
102	0xbc9a148b	-0.018808624
103	0xbd9e0a97	-0.077168636
104	0x3d1f81a4	0.038941994
105	0x3d6101e9	0.054933462
106	0xbcc7cd45	-0.024389872
107	0xbd344798	-0.04401359
108	0x3d946ec7	0.072476916
109	0x3d4752d6	0.048662983
110	0x3d30a80c	0.043129012
111	0xbd0762e4	-0.033053294
112	0x3cc310c6	0.02381171
113	0x3d8e593d	0.069506146
114	0xb7f74047	-2.9474626e-05
115	0x3d02edb6	0.03196498
116	0x3d952711	0.07282842
117	0x3ce2e87c	0.027698748
118	0xbc231517	-0.009953759
119	0x3c820b4a	0.015874524
120	0x3c860f09	0.016364591
121	0xbc4bbea7	-0.012435592
122	0x3c00e644	0.0078674
123	0xbd97d7a8	-0.0741418
124	0x3c6875b8	0.014188223
125	0x3b9b46bd	0.0047386573
126	0xbac1b603	-0.0014778975
127	0xbd622d66	-0.055219077
128	0x3ce8c538	0.028414354
129	0x3cb10e6c	0.021613322
130	0x3d3921f6	0.045198403
131	0x3c6aeae7	0.014338232
132	0xbda0a7ad	-0.078444816
133	0xbd71224a	-0.05887059
134	0xbc9b9209	-0.018990533
135	0xbd69e402	-0.05710221
136	0xbc27472b	-0.010209839
137	0xbd1a31ca	-0.03764514
138	0x3d6e9679	0.05824897
139	0xbd084cd0	-0.03327638
140	0xbcabfa8f	-0.0209935
141	0x3d0e76b1	0.03478116
142	0xbda0eb8c	-0.07857427
143	0xbcd94339	-0.026521312
144	0xbd53dae0	-0.051722407
145	0x3d2ab062	0.041672118
146	0xbd66f3c7	-0.056384828
147	0xbd9770a7	-0.073945336
148	0xbd2afbeb	-0.041744154
149	0x3d864d71	0.065577395
150	0xbd0a7726	-0.033805035
151	0xbd18ba42	-0.037287004
152	0x3c82bd0e	0.015959289
153	0xbc20fd89	-0.0098260725
154	0x3d94dfff	0.07269286
155	0x3c88f3da	0.01671784
156	0xbcdce169	-0.026962953
157	0x3c039c4f	0.008032872
158	0xbd445489	-0.04793218
159	0xbd78e8af	-0.06076878
160	0xbd142d6d	-0.036176134
161	0x3d0d86c7	0.03455236
162	0xbc42f924	-0.01190022
163	0x3d47044e	0.04858809
164	0xbd223344	-0.039599672
165	0x3c9b826d	0.01898309
166	0x3d2685da	0.040654995
167	0x3d76b41f	0.06023037
168	0x3d6cb5cc	0.057790563
169	0x3d2e9886	0.042625926
170	0xbd0e8a56	-0.034799896
171	0x3d760b80	0.06006956
172	0xbcbff0aa	-0.023430187
173	0xbda3636c	-0.079779476
174	0x3cc77759	0.024348902
175	0xbd939bbf	-0.072074406
176	0x3d1a2e3b	0.037641745
177	0xbd983a0c	-0.074329466
178	0xbd23708b	-0.03990225
179	0xbd41b959	-0.047295902
180	0xbba54f79	-0.0050448743
181	0xbd8b7fd9	-0.068114944
182	0x3d4a8d3a	0.04945109
183	0xbd40a718	-0.047034353
184	0xbcccf76b	-0.025020322
185	0x3d99db19	0.07512493
186	0xbd3ce82c	-0.046119854
187	0xbd988c0b	-0.07448586
188	0x3d83ca59	0.06435079
189	0x3d9bcb0b	0.07607087
190	0x3d45b94f	0.048272427
191	0xbc2658f6	-0.010153046
192	0x3d96edcd	0.07369576
193	0x3d810b9f	0.06301045
194	0xbc9f9a57	-0.019482775
195	0xbd352866	-0.04422798
196	0x3d79a873	0.06095166
197	0xbcfee8f1	-0.031116934
198	0xb9aed896	-0.00033349235
199	0x39c6f92f	0.0003795116
200	0x3d2279b6	0.039666854
201	0x3da11fa2	0.078673616
202	0xbd2110b1	-0.03932256
203	0x3cb89413	0.022531545
204	0x3ae7c45e	0.0017682423
205	0xbd26578b	-0.04061083
206	0x3cd31ae5	0.02576966
207	0xbcb64f2f	-0.022254555
208	0x3cb0d42d	0.021585548
209	0x3d40607d	0.04696702
210	0xbd7e85b2	-0.06213922
211	0x3c889fed	0.016677821
212	0xbd0c0a10	-0.034189284
213	0x3d8d24a2	0.06891753
214	0x3d305337	0.04304811
215	0x3d3db6b0	0.046316803
216	0xbc6c1a95	-0.0144106345
217	0x3c83a6ed	0.016070807
218	0x3c81eedd	0.01586097
219	0xb9273125	-0.00015944669
220	0x3c3d2351	0.011544065
221	0xbc91bb1f	-0.017789422
222	0x3cfcaeca	0.030845065
223	0xbc2c4006	-0.010513311
224	0xbd53991a	-0.05165968
225	0xbc996d9b	-0.018729022
226	0x3d2bc947	0.04194
227	0xbd83427c	-0.06409165
228	0x3d0d0fda	0.034438945
229	0x3d844345	0.06458143
230	0x3d2abf5c	0.0416864
231	0xbd545432	-0.051838107
232	0xbd98fd52	-0.07470192
233	0xbd7ee160	-0.062226653
234	0xbd2e635a	-0.042575218
235	0x3d8a1181	0.0674162
236	0xbd825a3e	-0.063648686
237	0xbd8fb28d	-0.07016478
238	0x3d61cc69	0.05512658
239	0xbd8567f1	-0.06513966
240	0x3bd10392	0.0063785994
241	0x3d9fa0d8	0.077943504
242	0x3d82cd23	0.06386783
243	0x3b8bfee6	0.0042723296
244	0x3d52755f	0.051381465
245	0xbcb87660	-0.022517383
246	0x3d9296ec	0.07157692
247	0xbd303806	-0.043022178
248	0x3c5fd872	0.013662444
249	0xbd5e7ee4	-0.05432023
250	0xbce1858e	-0.027529504
251	0x3c260c76	0.010134807
252	0x3baab766	0.005209851
253	0x3cbdd606	0.023173343
254	0x3ca4c37f	0.020112751
255	0x3d33b5b4	0.043874457

basic_rnn.bias_ih_l0 f4 [150]
0	0xbda2bc82	-0.07946111
1	0x3d24dcb2	0.040249534
2	0x3c69de84	0.014274243
3	0x3d953be9	0.072868176
4	0xbd553369	-0.05205098
5	0xbce06b9c	-0.027395062
6	0xbd55b736	-0.052176677
7	0xbd9d972f	-0.076948516
8	0x3d4c820a	0.049928702
9	0x3d4acf35	0.049514014
10	0x3cb5b5bf	0.02218139
11	0x3b402d75	0.002932397
12	0xbd9d4d44	-0.07680753
13	0x3d8e0de6	0.06936245
14	0xbd5717b2	-0.052512832
15	0x3b86584c	0.0040998813
16	0x3cffafa1	0.031211676
17	0xbc0285b4	-0.007966448
18	0x3d1dfb0b	0.03856949
19	0x3d80c77f	0.06288051
20	0x3cb0a8c6	0.021564852
21	0x3d302afb	0.04300974
22	0x3d7e2fae	0.06205719
23	0x3d96db78	0.07366079
24	0xbcb0cd36	-0.021582227
25	0xbd80aa76	-0.06282513
26	0xbca626ca	-0.020282168
27	0x3d8d4c89	0.068993635
28	0x3d91f35b	0.071264945
29	0xbd3f13b5	-0.046649653
30	0x3bdc7ef4	0.006729001
31	0xbbae491c	-0.005318774
32	0xbd77dc67	-0.060512926
33	0x3d57f1db	0.052720886
34	0xbda2bca6	-0.07946138
35	0xbd8369f3	-0.064166926
36	0x3d22d0a2	0.03974975
37	0xbd88a525	-0.06672124
38	0x3d968d92	0.07351221
39	0x3da290e4	0.07937792
40	0xbd26869d	-0.04065572
41	0x3d8615f1	0.06547154
42	0x3c85b11a	0.0163198
43	0x3d36aa80	0.044596195
44	0xbc64bdfb	-0.0139613105
45	0xbd084765	-0.033271212
46	0x3c082c0f	0.008311286
47	0xbd224075	-0.039612252
48	0x3cc4484f	0.02396026
49	0x3d548a76	0.05188986
50	0x3a1dd2f0	0.0006020507
51	0x3ce51a91	0.02796677
52	0xbcc750a6	-0.024330448
53	0x3d8f7e02	0.07006456
54	0xbd8a12b9	-0.06741852
55	0x3da1baea	0.07896979
56	0x3d0b087e	0.033943646
57	0x3d7693a7	0.060199406
58	0xbd14f0ff	-0.036362644
59	0x3d9271e3	0.071506284
60	0xbc245701	-0.010030509
61	0x3c6b2c42	0.014353814
62	0x3cef6efa	0.029227722
63	0x3ce9c4c0	0.0285362
64	0x3cb3479c	0.021884732
65	0x3d81efdc	0.06344578
66	0x3da1141c	0.07865164
67	0x3cd2bff1	0.02572629
68	0xbd2b2b4c	-0.041789338
69	0xbc575b10	-0.01314427
70	0xbd5a1f46	-0.05325248
71	0xbc7030cf	-0.014660074
72	0xbca0c2d9	-0.01962416
73	0x3cdf180f	0.027233152
74	0xbd91c0a4	-0.071168214
75	0xbd689dfc	-0.05679129
76	0xbd3147bc	-0.0432813
77	0xbd085584	-0.03328468
78	0xbda1ae36	-0.07894556
79	0xbcfce5df	-0.03087133
80	0xbd6fd2c1	-0.0585506
81	0xbd1b94d7	-0.03798374
82	0xbcacf73e	-0.021113988
83	0x3d876368	0.06610757
84	0x3d93734d	0.07199726
85	0xbd0cbb93	-0.034358572
86	0xbd4ef611	-0.050527636
87	0xbd2b95bd	-0.04189085
88	0xbd8e3028	-0.06942779
89	0xbd1b2a02	-0.03788186
90	0xbb1a850d	-0.002357784
91	0x3a7557af	0.0009359074
92	0x3b8305db	0.0039985008
93	0xbd51a44c	-0.051182076
94	0xbd89a571	-0.067210086
95	0x3d822600	0.06354904
96	0xbd9681c0	-0.073489666
97	0x3d91cd01	0.071191795
98	0x3d98b78c	0.07456884
99	0xbce619a1	-0.028088393
100	0x3bd53c52	0.006507435
101	0xbc1c3d61	-0.009536118
102	0x3dacf5f1	0.08445347
103	0x3d90aa56	0.07063739
104	0xbd1a5992	-0.037683077
105	0x3a2305c5	0.0006218816
106	0xbd63ebb6	-0.055644713
107	0x3d951f99	0.072814174
108	0xbd821986	-0.063525245
109	0x3da4d381	0.08048154
110	0xbd0842b1	-0.033266727
111	0x3d8fc845	0.0702062
112	0xbd95b86b	-0.073105656
113	0xbccd5aaa	-0.025067646
114	0xbc9d725d	-0.019219572
115	0xbcd81042	-0.02637494
116	0xbd8570e4	-0.06515673
117	0xbd4789ba	-0.04871533
118	0xba523d0e	-0.0008019962
119	0x3d89d409	0.067298956
120	0x3d4300fc	0.04760836
121	0xba056b4f	-0.00050895376
122	0x3c753431	0.014966057
123	0xbd3aec13	-0.045635294
124	0x3d77e8db	0.060524803
125	0x3c394707	0.011308438
126	0x3c10a8c8	0.008829303
127	0xbda434f4	-0.080179125
128	0xbd0735d5	-0.033010323
129	0xbc278ffb	-0.010227199
130	0xbd3232ed	-0.043505598
131	0x3c843386	0.01613785
132	0x3d561c4c	0.05227308
133	0x3d853396	0.0650398
134	0xbc98a33b	-0.018632522
135	0x3d1238ff	0.035698887
136	0xba80ab82	-0.0009816738
137	0xbd597e8b	-0.053099196
138	0xbcc5ff7f	-0.024169682
139	0xbbbbcf98	-0.005731534
140	0x3c45d6ca	0.0120751355
141	0xbd830a37	-0.06398433
142	0xbd8a1cc9	-0.067437716
143	0xbd375e28	-0.04476753
144	0x3d3e490f	0.046456393
145	0xbd9ff31b	-0.078100406
146	0xbd7e062e	-0.062017612
147	0x3da41af3	0.08012953
148	0x3d9a6522	0.07538821
149	0xbc1cbcbf	-0.009566485

basic_rnn.bias_hh_l0 f4 [150]
0	0x3d24f9d5	0.04027732
1	0x3d3448b6	0.044014655
2	0xbcc84b51	-0.024449976
3	0x3d953b34	0.07286683
4	0xbb58c37c	-0.0033075502
5	0x3d34c6ba	0.044134833
6	0x3d71b888	0.059013873
7	0xbd18519a	-0.037187196
8	0x3d7d8831	0.06189746
9	0x3d87345e	0.06601785
10	0x3d946e8b	0.07247647
11	0x3d03ce44	0.032179132
12	0x3d09b7c5	0.033622522
13	0x3cfda2c5	0.030961404
14	0xbd8122a4	-0.06305435
15	0x3da4061e	0.08008979
16	0xbb9209c5	-0.004456731
17	0xbd918a56	-0.071064636
18	0x3c419581	0.01181543
19	0x3d9efb99	0.07762832
20	0x3d498541	0.049199346
21	0x3d115cb7	0.03548881
22	0xbd76b530	-0.060231388
23	0xbd6478ae	-0.05577915
24	0xbd4c8b0c	-0.049937293
25	0x3d663c75	0.05621
26	0xbd9bfe90	-0.07616913
27	0xbd83e59b	-0.06440278
28	0x3d88bdd3	0.06676831
29	0x3b11caa5	0.002224603
30	0x3cf0b887	0.029384864
31	0x3c53b718	0.012922071
32	0xbd3fa4b6	-0.04678794
33	0x3cb5bf8c	0.022186063
34	0x3c2cf4de	0.010556428
35	0xbd966c55	-0.073448814
36	0xbd21dd98	-0.03951797
37	0x3ca4c639	0.020114051
38	0xbd127feb	-0.035766523
39	0x3a8448a4	0.0010092449
40	0xbdaa78ac	-0.083237976
41	0xbcf799e5	-0.03022475
42	0xbbb33b2c	-0.0054697003
43	0x3d322925	0.04349627
44	0xbd275257	-0.04085001
45	0x3c836e71	0.016043874
46	0x3d42d8a7	0.047569897
47	0x3d191de8	0.037382036
48	0x3d446d07	0.04795554
49	0xbd872fe0	-0.06600928
50	0x3da0e2b2	0.07855739
51	0x3cb29750	0.021800667
52	0x3c1d86aa	0.009614626
53	0x3d6f7145	0.05845763
54	0x3d1b2723	0.03787912
55	0x3d8cff0c	0.06884584
56	0xbd823e77	-0.063595705
57	0x3daec0ba	0.085328534
58	0x3bf50f8d	0.0074786604
59	0x3c35afc1	0.011089266
60	0x3d23ac00	0.039958954
61	0x3d65e547	0.05612686
62	0xbc4d6d39	-0.012538248
63	0xbd90d791	-0.07072366
64	0x3d9d391c	0.076769084
65	0x3c7554df	0.014973848
66	0x3d318fd2	0.04335005
67	0xbc40e5e7	-0.011773563
68	0x397523ff	0.0002337843
69	0x3c48e42b	0.012261431
70	0x3d9557bf	0.07292127
71	0xbd043605	-0.03227808
72	0x3d8f841b	0.07007619
73	0x3cb64ffe	0.02225494
74	0xbb6bb5ef	-0.0035966595
75	0x3d3d54a1	0.046223287
76	0x3b584ffe	0.0033006663
77	0xbd005044	-0.031326547
78	0x3d8c5a9f	0.06853222
79	0xbd89e250	-0.06732619
80	0x3d4a4478	0.049381703
81	0x3c24a85d	0.010049907
82	0xb95cf116	-0.00021070646
83	0x3d8d8bbf	0.0691142
84	0xbd4c8dd3	-0.04993994
85	0xbd996c1c	-0.07491323
86	0x3d6503a9	0.055911694
87	0x3c2affeb	0.010436992
88	0xbbe7b6a1	-0.0070713316
89	0x3d481494	0.04884775
90	0x3d4d8cf0	0.050183237
91	0x3cef6ef6	0.029227715
92	0x3c9ee591	0.019396575
93	0xbd9139c2	-0.070910946
94	0x3d9879c3	0.07445099
95	0x3b9150b1	0.004434668
96	0xbd7fc227	-0.062441017
97	0xbd844e19	-0.064602084
98	0x3be5e7b5	0.007016147
99	0x3d965c28	0.07341796
100	0xbc8b32ee	-0.016992059
101	0x3c979feb	0.018508872
102	0xbd30c6c5	-0.04315831
103	0xbbda866d	-0.006668857
104	0x3cfa2b20	0.030538142
105	0x3d88e4f1	0.06684292
106	0x3d86692d	0.065630294
107	0xbd8fde80	-0.070248604
108	0xbca762e0	-0.02043289
109	0xbd28ebd9	-0.041240547
110	0x3d5c3591	0.053762022
111	0x3d5cf3c9	0.05394343
112	0x3d24efd4	0.04026778
113	0xbd0706ee	-0.032965593
114	0x3d3957b0	0.04524964
115	0x3d11486c	0.035469458
116	0xbd37d5e4	-0.044881716
117	0xbcd182f1	-0.025575133
118	0xbc3d4b8e	-0.011553658
119	0xbb2ed8f6	-0.0026679612
120	0xbd7426cc	-0.059607312
121	0x3d8f271d	0.06989882
122	0xbda29b86	-0.0793982
123	0xbc8728cd	-0.016498948
124	0x3cbae19e	0.02281266
125	0xbba142c9	-0.0049212915
126	0xba39d2ac	-0.00070885825
127	0xbd104b29	-0.03522793
128	0xbd4ccf3b	-0.050002318
129	0x3c6c74b8	0.014432125
130	0x3da2ff51	0.07958854
131	0x3c06d072	0.008228408
132	0x3d405291	0.04695374
133	0xbc82e09f	-0.015976248
134	0x3d50cbf5	0.05097576
135	0x3d844398	0.06458205
136	0xbd20ffa5	-0.0393063
137	0xbd88837a	-0.06665702
138	0xbaf18310	-0.00184259
139	0x3d8293c3	0.063758396
140	0xbd73efd1	-0.05955488
141	0xbc221f05	-0.009895091
142	0xbc1ca2c1	-0.009560288
143	0xbc85b4bd	-0.016321534
144	0x3d35acbc	0.044354185
145	0x3d22e5df	0.039770003
146	0xbd263f6d	-0.04058783
147	0x3d52f965	0.051507372
148	0xbb41ca40	-0.0029570013
149	0xbc6db131	-0.014507578

FC.weight f4 [4, 150]
0	0x3d4bdf05	0.049773235
1	0x3d00edb1	0.03147668
2	0x3d439abd	0.04775499
3	0x3ca2cff7	0.019874556
4	0x3cfe3871	0.031032773
5	0x3d3de27b	0.046358567
6	0xbd0ba747	-0.034095075
7	0x3da55bd2	0.08074154
8	0xbd854aef	-0.06508433
9	0xbc23a66a	-0.009988407
10	0x3d09bef6	0.03362938
11	0xbd458f6e	-0.04823249
12	0xbafcdc7d	-0.0019291785
13	0xb9c583a2	-0.00037672842
14	0xbc7cbdb5	-0.015426089
15	0x3c8c8822	0.017154757
16	0xbb643328	-0.003482053
17	0x3d7f20b1	0.062287036
18	0x3ce0d013	0.027442968
19	0xbcdce6d4	-0.026965536
20	0xbcf7150c	-0.030161403
21	0xbd67c03a	-0.056579806
22	0xbca1c654	-0.01974789
23	0x3d13284c	0.035927102
24	0xbd8152d2	-0.06314625
25	0x3d16b776	0.036796056
26	0xbd8cad5b	-0.068690024
27	0x3d87f94f	0.06639349
28	0xbd40a19e	-0.04702913
29	0xbd423f62	-0.047423728
30	0x3ca31116	0.019905608
31	0x3d0c2d29	0.034222756
32	0x3cdb55cf	0.026774315
33	0xbd8884bf	-0.06665944
34	0xbcbc0d88	-0.022955671
35	0x3d251f00	0.040312767
36	0xbdaa249e	-0.083077654
37	0xbd8406d2	-0.06446613
38	0xbc15d48c	-0.009144913
39	0x3ce0a1be	0.027420875
40	0x3dae1031	0.08499182
41	0x3d0608e4	0.032723323
42	0x3c0b5c95	0.00850596
43	0x3ade1c17	0.0016945627
44	0xbd9288fd	-0.07155035
45	0x3d8c4e17	0.06850832
46	0x3a97f2f3	0.001159279
47	0xbcc025f4	-0.023455597
48	0xbd2b36f1	-0.041800443
49	0x3c9cc5d6	0.019137304
50	0xbc59a944	-0.013284985
51	0xbcb2825f	-0.021790681
52	0xbd843723	-0.06455829
53	0x3cea698f	0.028614787
54	0xbd857a08	-0.06517416
55	0x3ca62cba	0.020285
56	0x3cb72331	0.022355648
57	0xbda99f06	-0.082822844
58	0xbd2ec979	-0.042672608
59	0x3d0e4539	0.034733985
60	0xbd836640	-0.06415987
61	0x3d5ccdaf	0.053907093
62	0xbd4bf021	-0.04978955
63	0xbd832f45	-0.064055
64	0x3d5f0116	0.054444395
65	0x3c1e31fa	0.00965547
66	0x3d088abc	0.033335432
67	0xbc02b9a5	-0.007978831
68	0xbc6bacbb	-0.014384444
69	0xbdb50aa3	-0.088399194
70	0xbc38ae36	-0.011272004
71	0xbda4bfdc	-0.08044407
72	0x3d9c65fa	0.07636638
73	0xbd7293c7	-0.059222963
74	0xbd3f2af7	-0.046671834
75	0xbba94f8e	-0.0051669544
76	0xbd65b130	-0.056077182
77	0xbd975e3f	-0.07391023
78	0xbd92ea95	-0.07173649
79	0x3d0768de	0.033058994
80	0xbc1ecb91	-0.009692089
81	0x3cbbcf1e	0.02292591
82	0xb99e1f00	-0.00030159205
83	0xbd9ef7ef	-0.07762133
84	0xbc3bf3fb	-0.011471744
85	0x3b34f741	0.0027613195
86	0xbd4c4b63	-0.049876582
87	0x3d0a8d49	0.033826146
88	0x3da12dea	0.078700855
89	0xbd9c1970	-0.07622039
90	0x3d21ca0c	0.039499328
91	0x3c805798	0.015666768
92	0xbd8f5efe	-0.0700054
93	0x3d013f7d	0.031554688
94	0x3d5026e2	0.05081833
95	0xb9d81830	-0.00041216752
96	0xbd911570	-0.07084167
97	0xbc9d9302	-0.019235138
98	0xbd04c32f	-0.032412704
99	0xbcc7363f	-0.024317859
100	0x3da1b986	0.07896714
101	0xbd4d7353	-0.05015881
102	0xbd8f3d67	-0.069941334
103	0xbd58c152	-0.05291874
104	0xbd47a9dd	-0.04874598
105	0xbd88ef16	-0.06686227
106	0x3b8941c3	0.0041887476
107	0x3c94556e	0.018107142
108	0xbc9b6e3e	-0.018973466
109	0xbd8bfa49	-0.068348475
110	0xbd56c91e	-0.052437894
111	0x3d2a9338	0.041644305
112	0x3d7c7ccc	0.061642453
113	0xbcf318f8	-0.029674992
114	0xbc84b72e	-0.016200628
115	0x3cead3c5	0.028665433
116	0xbd4b002a	-0.049560703
117	0xbd71debf	-0.059050318
118	0xbd9ccb2c	-0.076559395
119	0xbd5628e3	-0.052285086
120	0x3b890f25	0.0041827136
121	0x3d9c07f6	0.07618706
122	0x3d1fcbbf	0.039012667
123	0xbd129ece	-0.03579598
124	0x3d30b8ce	0.043144993
125	0x3d88992b	0.066698395
126	0xbcc1d17a	-0.023659457
127	0xbc5b816f	-0.013397559
128	0x3d38557a	0.04500339
129	0x3d7cfaad	0.0617625
130	0xbd75ef86	-0.06004288
131	0x3c8110d1	0.015755089
132	0xbd154b29	-0.03644863
133	0x3cf6d82f	0.030132381
134	0x3b974adc	0.004617078
135	0xbd9bf56a	-0.076151684
136	0x3cdb5228	0.026772574
137	0xbae9f501	-0.0017849506
138	0xbcde1231	-0.027108284
139	0x3cf6c35d	0.030122453
140	0xbda484c2	-0.08033134
141	0x3c8803cf	0.016603379
142	0xbcfdba64	-0.030972667
143	0xbb7c4533	-0.0038493394
144	0x3d294754	0.04132779
145	0x3d131b6c	0.035914823
146	0xbd8b6cd2	-0.06807865
147	0xbd56a5b3	-0.052404117
148	0x3d96cb4e	0.07362996
149	0xb986e5f7	-0.0002572981
150	0x3c43a9c2	0.011942329
151	0x3d10c678	0.035345525
152	0x3cb1823b	0.021668544
153	0x3d3af277	0.04564139
154	0xbc4e0868	-0.012575246
155	0xbd3bb5f4	-0.04582782
156	0x3d8383f7	0.06421655
157	0x3d9278e0	0.07151961
158	0xbd142951	-0.036172215
159	0x3d8060b0	0.06268442
160	0xbc8daba4	-0.017293759
161	0xbd4b7af6	-0.04967781
162	0xbd214863	-0.039375674
163	0xbd1bc1ff	-0.038026806
164	0x3c0eaa86	0.008707648
165	0xbc81db28	-0.015851572
166	0x3d443969	0.047906313
167	0x3cbce52c	0.023058496
168	0xbd9eb4ae	-0.07749306
169	0x3d02dbce	0.031947903
170	0xbba6df51	-0.0050925394
171	0x3cfe51ed	0.031044925
172	0xbcb57ca3	-0.022154158
173	0xbd7b5dbb	-0.061368685
174	0xbd726c42	-0.059185274
175	0x3cc138ad	0.023586595
176	0xbcc1e22c	-0.023667417
177	0x3d0c32ae	0.03422802
178	0x3d046e74	0.0323319
179	0x3bea8686	0.0071571497
180	0x3b59f82d	0.0033259497
181	0x3cdccd2d	0.026953304
182	0xbda70ccf	-0.0815674
183	0xbd4771f9	-0.048692677
184	0xbd31a89d	-0.043373693
185	0x3cccd3dd	0.025003368
186	0x3d06cf0f	0.03291231
187	0x3c469089	0.012119421
188	0xbc3c4b8a	-0.011492619
189	0xbd41b8f7	-0.047295537
190	0xbce7ee9b	-0.028312018
191	0xbd9a7829	-0.0754245
192	0x3d3d6e27	0.046247628
193	0xbd82c4d1	-0.06385196
194	0xbd8f9db6	-0.07012503
195	0x3d06c7e9	0.032905493
196	0xbb8577dd	-0.0040731267
197	0xbd9b3969	-0.075793095
198	0xbd7258aa	-0.059166588
199	0x3d93553d	0.07193992
200	0x3d63613d	0.055512656
201	0xbcfa5555	-0.030558268
202	0xbd7ee833	-0.06223316
203	0x3d0df28e	0.034655146
204	0x3ce32907	0.027729524
205	0xbce969b7	-0.028492792
206	0x3bcc02c9	0.006225918
207	0xbd82ce62	-0.06387021
208	0x3d7a386d	0.061088968
209	0x3d700591	0.05859906
210	0x3d45521b	0.048174005
211	0x3d1582b8	0.036501616
212	0xbc582d95	-0.013194461
213	0xbd737621	-0.05943883
214	0xbd22851b	-0.03967772
215	0x3c8f1fe0	0.017471254
216	0xbcc095c8	-0.023508921
217	0xbd21e8c6	-0.03952863
218	0xbd0bfefd	-0.034178723
219	0x3da594fe	0.08085059
220	0x3cb48ceb	0.022039851
221	0x3d835dc0	0.06414366
222	0xbbcd8aab	-0.006272634
223	0x3bc6c26b	0.006065657
224	0xbd0efa89	-0.034906898
225	0xbd397407	-0.045276668
226	0x3ca7a2cf	0.020463375
227	0xbd275a7b	-0.040857773
228	0x3a6c2701	0.00090084976
229	0xbd51762e	-0.051138096
230	0xbd0c22f6	-0.03421303
231	0xbd816f9e	-0.063201174
232	0x3d887a94	0.06664005
233	0x3d185232	0.037187763
234	0xbd6f8c49	-0.058483396
235	0x3c0f17c1	0.008733691
236	0xbd952ed5	-0.07284323
237	0xbd2182a0	-0.039431214
238	0x3d7ec79d	0.062202085
239	0x3d9b6efd	0.07589529
240	0x3d0c6bac	0.03428237
241	0xbcd9c94e	-0.026585247
242	0x3c8943b9	0.016755925
243	0xbd910c19	-0.070823856
244	0xbca20f72	-0.019782756
245	0x3cd26e1e	0.025687274
246	0xbce3a581	-0.02778888
247	0x3d26d3ea	0.04072944
248	0x3d840377	0.06445973
249	0x3b8a95c0	0.0042292774
250	0xbd615f73	-0.055022668
251	0x3c1e4870	0.009660825
252	0xbd9104e0	-0.07081008
253	0xbd849f78	-0.06475729
254	0x3d79540d	0.060871173
255	0x3d815a43	0.06316044

FC.bias f4 [4]
0	0xbdc62563	-0.096751
1	0x3da7df2e	0.08196865
2	0x3d3e23fc	0.046421036
3	0x3b6e1937	0.0036330947
